…
_state_dict(checkpoint['state_dict'])\n# else:\n#     model.load_state_dict(checkpoint)\n# model.eval()\n# print(model)\n# print(torch.load(model_path).keys())\nmodel = HSCNN_Plus()  # Initialize your custom model\n# Load model checkpoint\ncheckpoint = torch.load(model_path, map_location=torch.device('cuda' if torch.cuda.is_available() else 'cpu'))\nif 'state_dict' in checkpoint:\n    model.load_state_dict(checkpoint['state_dict'])\nelse:\n    model.load_state_dict(checkpoint)\n\nmodel.eval()  # Set to evaluation mode (good practice for inference)\n\nHSCNN_Plus(\n  (ddfn): ddfn(\n    (conv_up1): Conv2d(3, 32, kernel_size=(3, 3), stride=(1, 1), padding=(1, 1), bias=False)\n    (conv_up2): Conv2d(32, 32, kernel_size=(1, 1), stride=(1, 1), bias=False)\n    (conv_down1): Conv2d(3, 32, kernel_size=(3, 3), stride=(1, 1), padding=(1, 1), bias=False)\n    (conv_down2): Conv2d(32, 32, kernel_size=(1, 1), stride=(1, 1), bias=False)\n    (dfus_blocks): Sequential(\n      (0): dfus_block(\n        (conv1): Conv2d(128, 128, kernel_size=(1, 1), stride=(1, 1), bias=False)\n        (conv_up1): Conv2d(128, 32, kernel_size=(3, 3), stride=(1, 1), padding=(1, 1), bias=False)\n        (conv_up2): Conv2d(32, 16, kernel_size=(1, 1), stride=(1, 1), bias=False)\n        (conv_down1): Conv2d(128, 32, kernel_size=(3, 3), stride=(1, 1), padding=(1, 1), bias=False)\n        (conv_down2): Conv2d(32, 16, kernel_size=(1, 1), stride=(1, 1), bias=False)\n        (conv_fution): Conv2d(96, 32, kernel_size=(1, 1), stride=(1, 1), bias=False)\n        (relu): ReLU(inplace=True)\n      )\n      (1): dfus_block(\n        (conv1): Conv2d(160, 128, kernel_size=(1, 1), stride=(1, 1), bias=False)\n        (conv_up1): Conv2d(128, 32, kernel_size=(3, 3), stride=(1, 1), padding=(1, 1), bias=False)\n        (conv_up2): Conv2d(32, 16, kernel_size=(1, 1), stride=(1, 1), bias=False)\n        (conv_down1): Conv2d(128, 32, kernel_size=(3, 3), stride=(1, 1), padding=(1, 1), bias=False)\n        (conv_down2): Conv2d(32, 16, kernel_size=(1, 1), stride=(1, 1), bias=False)\n        (conv_fution): Conv2d(96, 32, kernel_size=(1, 1), stride=(1, 1), bias=False)\n        (relu): ReLU(inplace=True)\n      )\n      (2): dfus_block(\n        (conv1): Conv2d(192, 128, kernel_size=(1, 1), stride=(1, 1), bias=False)\n        (conv_up1): Conv2d(128, 32, kernel_size=(3, 3), stride=(1, 1), padding=(1, 1), bias=False)\n        (conv_up2): Conv2d(32, 16, kernel_size=(1, 1), stride=(1, 1), bias=False)\n        (conv_down1): Conv2d(128, 32, kernel_size=(3, 3), stride=(1, 1), padding=(1, 1), bias=False)\n        (conv_down2): Conv2d(32, 16, kernel_size=(1, 1), stride=(1, 1), bias=False)\n        (conv_fution): Conv2d(96, 32, kernel_size=(1, 1), stride=(1, 1), bias=False)\n        (relu): ReLU(inplace=True)\n      )\n      (3): dfus_block(\n        (conv1): Conv2d(224, 128, kernel_size=(1, 1), stride=(1, 1), bias=False)\n        (conv_up1): Conv2d(128, 32, kernel_size=(3, 3), stride=(1, 1), padding=(1, 1), bias=False)\n        (conv_up2): Conv2d(32, 16, kernel_size=(1, 1), stride=(1, 1), bias=False)\n        (conv_down1): Conv2d(128, 32, kernel_size=(3, 3), stride=(1, 1), padding=(1, 1), bias=False)\n        (conv_down2): Conv2d(32, 16, kernel_size=(1, 1), stride=(1, 1), bias=False)\n        (conv_fution): Conv2d(96, 32, kernel_size=(1, 1), stride=(1, 1), bias=False)\n        (relu): ReLU(inplace=True)\n      )\n      (4): dfus_block(\n        (conv1): Conv2d(256, 128, kernel_size=(1, 1), stride=(1, 1), bias=False)\n        (conv_up1): Conv2d(128, 32, kernel_size=(3, 3), stride=(1, 1), padding=(1, 1), bias=False)\n        (conv_up2): Conv2d(32, 16, kernel_size=(1, 1), stride=(1, 1), bias=False)\n        (conv_down1): Conv2d(128, 32, kernel_size=(3, 3), stride=(1, 1), padding=(1, 1), bias=False)\n        (conv_down2): Conv2d(32, 16, kernel_size=(1, 1), stride=(1, 1), bias=False)\n        (conv_fution): Conv2d(96, 32, kernel_size=(1, 1), stride=(1, 1), bias=False)\n        (relu): ReLU(inplace=True)\n      )\n      (5): dfus_block(\n        (conv1): Conv2d(288, 128, kernel_size=(1, 1), stride=(1, 1), bias=False)\n        (conv_up1): Conv2d(128, 32, kernel_size=(3, 3), stride=(1, 1), padding=(1, 1), bias=False)\n        (conv_up2): Conv2d(32, 16, kernel_size=(1, 1), stride=(1, 1), bias=False)\n        (conv_down1): Conv2d(128, 32, kernel_size=(3, 3), stride=(1, 1), padding=(1, 1), bias=False)\n        (conv_down2): Conv2d(32, 16, kernel_size=(1, 1), stride=(1, 1), bias=False)\n        (conv_fution): Conv2d(96, 32, kernel_size=(1, 1), stride=(1, 1), bias=False)\n        (relu): ReLU(inplace=True)\n      )\n      (6): dfus_block(\n        (conv1): Conv2d(320, 128, kernel_size=(1, 1), stride=(1, 1), bias=False)\n        (conv_up1): Conv2d(128, 32, kernel_size=(3, 3), stride=(1, 1), padding=(1, 1), bias=False)\n        (conv_up2): Conv2d(32, 16, kernel_size=(1, 1), stride=(1, 1), bias=False)\n        (conv_down1): Conv2d(128, 32, kernel_size=(3, 3), stride=(1, 1), padding=(1, 1), bias=False)\n        (conv_down2): Conv2d(32, 16, kernel_size=(1, 1), stride=(1, 1), bias=False)\n        (conv_fution): Conv2d(96, 32, kernel_size=(1, 1), stride=(1, 1), bias=False)\n        (relu): ReLU(inplace=True)\n      )\n      (7): dfus_block(\n        (conv1): Conv2d(352, 128, kernel_size=(1, 1), stride=(1, 1), bias=False)\n        (conv_up1): Conv2d(128, 32, kernel_size=(3, 3), stride=(1, 1), padding=(1, 1), bias=False)\n        (conv_up2): Conv2d(32, 16, kernel_size=(1, 1), stride=(1, 1), bias=False)\n        (conv_down1): Conv2d(128, 32, kernel_size=(3, 3), stride=(1, 1), padding=(1, 1), bias=False)\n        (conv_down2): Conv2d(32, 16, kernel_size=(1, 1), stride=(1, 1), bias=False)\n        (conv_fution): Conv2d(96, 32, kernel_size=(1, 1), stride=(1, 1), bias=False)\n        (relu): ReLU(inplace=True)\n      )\n      (8): dfus_block(\n        (conv1): Conv2d(384, 128, kernel_size=(1, 1), stride=(1, 1), bias=False)\n        (conv_up1): Conv2d(128, 32, kernel_size=(3, 3), stride=(1, 1), padding=(1, 1), bias=False)\n        (conv_up2): Conv2d(32, 16, kernel_size=(1, 1), stride=(1, 1), bias=False)\n        (conv_down1): Conv2d(128, 32, kernel_size=(3, 3), stride=(1, 1), padding=(1, 1), bias=False)\n        (conv_down2): Conv2d(32, 16, kernel_size=(1, 1), stride=(1, 1), bias=False)\n        (conv_fution): Conv2d(96, 32, kernel_size=(1, 1), stride=(1, 1), bias=False)\n        (relu): ReLU(inplace=True)\n      )\n      (9): dfus_block(\n        (conv1): Conv2d(416, 128, kernel_size=(1, 1), stride=(1, 1), bias=False)\n        (conv_up1): Conv2d(128, 32, kernel_size=(3, 3), stride=(1, 1), padding=(1, 1), bias=False)\n        (conv_up2): Conv2d(32, 16, kernel_size=(1, 1), stride=(1, 1), bias=False)\n        (conv_down1): Conv2d(128, 32, kernel_size=(3, 3), stride=(1, 1), padding=(1, 1), bias=False)\n        (conv_down2): Conv2d(32, 16, kernel_size=(1, 1), stride=(1, 1), bias=False)\n        (conv_fution): Conv2d(96, 32, kernel_size=(1, 1), stride=(1, 1), bias=False)\n        (relu): ReLU(inplace=True)\n      )\n      (10): dfus_block(\n        (conv1): Conv2d(448, 128, kernel_size=(1, 1), stride=(1, 1), bias=False)\n        (conv_up1): Conv2d(128, 32, kernel_size=(3, 3), stride=(1, 1), padding=(1, 1), bias=False)\n        (conv_up2): Conv2d(32, 16, kernel_size=(1, 1), stride=(1, 1), bias=False)\n        (conv_down1): Conv2d(128, 32, kernel_size=(3, 3), stride=(1, 1), padding=(1, 1), bias=False)\n        (conv_down2): Conv2d(32, 16, kernel_size=(1, 1), stride=(1, 1), bias=False)\n        (conv_fution): Conv2d(96, 32, kernel_size=(1, 1), stride=(1, 1), bias=False)\n        (relu): ReLU(inplace=True)\n      )\n      (11): dfus_block(\n        (conv1): Conv2d(480, 128, kernel_size=(1, 1), stride=(1, 1), bias=False)\n        (conv_up1): Conv2d(128, 32, kernel_size=(3, 3), stride=(1, 1), padding=(1, 1), bias=False)\n        (conv_up2): Conv2d(32, 16, kernel_size=(1, 1), stride=(1, 1), bias=False)\n        (conv_down1): Conv2d(128, 32, kernel_size=(3, 3), stride=(1, 1), padding=(1, 1), bias=False)\n        (conv_down2): Conv2d(32, 16, kernel_size=(1, 1), stride=(1, 1), bias=False)\n        (conv_fution): Conv2d(96, 32, kernel_size=(1, 1), stride=(1, 1), bias=False)\n        (relu): ReLU(inplace=True)\n      )\n      (12): dfus_block(\n        (conv1): Conv2d(512, 128, kernel_size=(1, 1), stride=(1, 1), bias=False)\n        (conv_up1): Conv2d(128, 32, kernel_size=(3, 3), stride=(1, 1), padding=(1, 1), bias=False)\n        (conv_up2): Conv2d(32, 16, kernel_size=(1, 1), stride=(1, 1), bias=False)\n        (conv_down1): Conv2d(128, 32, kernel_size=(3, 3), stride=(1, 1), padding=(1, 1), bias=False)\n        (conv_down2): Conv2d(32, 16, kernel_size=(1, 1), stride=(1, 1), bias=False)\n        (conv_fution): Conv2d(96, 32, kernel_size=(1, 1), stride=(1, 1), bias=False)\n        (relu): ReLU(inplace=True)\n      )\n      (13): dfus_block(\n        (conv1): Conv2d(544, 128, kernel_size=(1, 1), stride=(1, 1), bias=False)\n        (conv_up1): Conv2d(128, 32, kernel_size=(3, 3), stride=(1, 1), padding=(1, 1), bias=False)\n        (conv_up2): Conv2d(32, 16, kernel_size=(1, 1), stride=(1, 1), bias=False)\n        (conv_down1): Conv2d(128, 32, kernel_size=(3, 3), stride=(1, 1), padding=(1, 1), bias=False)\n        (conv_down2): Conv2d(32, 16, kernel_size=(1, 1), stride=(1, 1), bias=False)\n        (conv_fution): Conv2d(96, 32, kernel_size=(1, 1), stride=(1, 1), bias=False)\n        (relu): ReLU(inplace=True)\n      )\n      (14): dfus_block(\n        (conv1): Conv2d(576, 128, kernel_size=(1, 1), stride=(1, 1), bias=False)\n        (conv_up1): Conv2d(128, 32, kernel_size=(3, 3), stride=(1, 1), padding=(1, 1), bias=False)\n        (conv_up2): Conv2d(32, 16, kernel_size=(1, 1), stride=(1, 1), bias=False)\n        (conv_down1): Conv2d(128, 32, kernel_size=(3, 3), stride=(1, 1), padding=(1, 1), bias=False)\n        (conv_down2): Conv2d(32, 16, kernel_size=(1, 1), stride=(1, 1), bias=False)\n        (conv_fution): Conv2d(96, 32, kernel_size=(1, 1), stride=(1, 1), bias=False)\n        (relu): ReLU(inplace=True)\n      )\n      (15): dfus_block(\n        (conv1): Conv2d(608, 128, kernel_size=(1, 1), stride=(1, 1), bias=False)\n        (conv_up1): Conv2d(128, 32, kernel_size=(3, 3), stride=(1, 1), padding=(1, 1), bias=False)\n        (conv_up2): Conv2d(32, 16, kernel_size=(1, 1), stride=(1, 1), bias=False)\n        (conv_down1): Conv2d(128, 32, kernel_size=(3, 3), stride=(1, 1), padding=(1, 1), bias=False)\n        (conv_down2): Conv2d(32, 16, kernel_size=(1, 1), stride=(1, 1), bias=False)\n        (conv_fution): Conv2d(96, 32, kernel_size=(1, 1), stride=(1, 1), bias=False)\n        (relu): ReLU(inplace=True)\n      )\n      (16): dfus_block(\n        (conv1): Conv2d(640, 128, kernel_size=(1, 1), stride=(1, 1), bias=False)\n        (conv_up1): Conv2d(128, 32, kernel_size=(3, 3), stride=(1, 1), padding=(1, 1), bias=False)\n        (conv_up2): Conv2d(32, 16, kernel_size=(1, 1), stride=(1, 1), bias=False)\n        (conv_down1): Conv2d(128, 32, kernel_size=(3, 3), stride=(1, 1), padding=(1, 1), bias=False)\n        (conv_down2): Conv2d(32, 16, kernel_size=(1, 1), stride=(1, 1), bias=False)\n        (conv_fution): Conv2d(96, 32, kernel_size=(1, 1), stride=(1, 1), bias=False)\n        (relu): ReLU(inplace=True)\n      )\n      (17): dfus_block(\n        (conv1): Conv2d(672, 128, kernel_size=(1, 1), stride=(1, 1), bias=False)\n        (conv_up1): Conv2d(128, 32, kernel_size=(3, 3), stride=(1, 1), padding=(1, 1), bias=False)\n        (conv_up2): Conv2d(32, 16, kernel_size=(1, 1), stride=(1, 1), bias=False)\n        (conv_down1): Conv2d(128, 32, kernel_size=(3, 3), stride=(1, 1), padding=(1, 1), bias=False)\n        (conv_down2): Conv2d(32, 16, kernel_size=(1, 1), stride=(1, 1), bias=False)\n        (conv_fution): Conv2d(96, 32, kernel_size=(1, 1), stride=(1, 1), bias=False)\n        (relu): ReLU(inplace=True)\n      )\n      (18): dfus_block(\n        (conv1): Conv2d(704, 128, kernel_size=(1, 1), stride=(1, 1), bias=False)\n        (conv_up1): Conv2d(128, 32, kernel_size=(3, 3), stride=(1, 1), padding=(1, 1), bias=False)\n        (conv_up2): Conv2d(32, 16, kernel_size=(1, 1), stride=(1, 1), bias=False)\n        (conv_down1): Conv2d(128, 32, kernel_size=(3, 3), stride=(1, 1), padding=(1, 1), bias=False)\n        (conv_down2): Conv2d(32, 16, kernel_size=(1, 1), stride=(1, 1), bias=False)\n        (conv_fution): Conv2d(96, 32, kernel_size=(1, 1), stride=(1, 1), bias=False)\n        (relu): ReLU(inplace=True)\n      )\n      (19): dfus_block(\n        (conv1): Conv2d(736, 128, kernel_size=(1, 1), stride=(1, 1), bias=False)\n        (conv_up1): Conv2d(128, 32, kernel_size=(3, 3), stride=(1, 1), padding=(1, 1), bias=False)\n        (conv_up2): Conv2d(32, 16, kernel_size=(1, 1), stride=(1, 1), bias=False)\n        (conv_down1): Conv2d(128, 32, kernel_size=(3, 3), stride=(1, 1), padding=(1, 1), bias=False)\n        (conv_down2): Conv2d(32, 16, kernel_size=(1, 1), stride=(1, 1), bias=False)\n        (conv_fution): Conv2d(96, 32, kernel_size=(1, 1), stride=(1, 1), bias=False)\n        (relu): ReLU(inplace=True)\n      )\n      (20): dfus_block(\n        (conv1): Conv2d(768, 128, kernel_size=(1, 1), stride=(1, 1), bias=False)\n        (conv_up1): Conv2d(128, 32, kernel_size=(3, 3), stride=(1, 1), padding=(1, 1), bias=False)\n        (conv_up2): Conv2d(32, 16, kernel_size=(1, 1), stride=(1, 1), bias=False)\n        (conv_down1): Conv2d(128, 32, kernel_size=(3, 3), stride=(1, 1), padding=(1, 1), bias=False)\n        (conv_down2): Conv2d(32, 16, kernel_size=(1, 1), stride=(1, 1), bias=False)\n        (conv_fution): Conv2d(96, 32, kernel_size=(1, 1), stride=(1, 1), bias=False)\n        (relu): ReLU(inplace=True)\n      )\n      (21): dfus_block(\n        (conv1): Conv2d(800, 128, kernel_size=(1, 1), stride=(1, 1), bias=False)\n        (conv_up1): Conv2d(128, 32, kernel_size=(3, 3), stride=(1, 1), padding=(1, 1), bias=False)\n        (conv_up2): Conv2d(32, 16, kernel_size=(1, 1), stride=(1, 1), bias=False)\n        (conv_down1): Conv2d(128, 32, kernel_size=(3, 3), stride=(1, 1), padding=(1, 1), bias=False)\n        (conv_down2): Conv2d(32, 16, kernel_size=(1, 1), stride=(1, 1), bias=False)\n        (conv_fution): Conv2d(96, 32, kernel_size=(1, 1), stride=(1, 1), bias=False)\n        (relu): ReLU(inplace=True)\n      )\n      (22): dfus_block(\n        (conv1): Conv2d(832, 128, kernel_size=(1, 1), stride=(1, 1), bias=False)\n        (conv_up1): Conv2d(128, 32, kernel_size=(3, 3), stride=(1, 1), padding=(1, 1), bias=False)\n        (conv_up2): Conv2d(32, 16, kernel_size=(1, 1), stride=(1, 1), bias=False)\n        (conv_down1): Conv2d(128, 32, kernel_size=(3, 3), stride=(1, 1), padding=(1, 1), bias=False)\n        (conv_down2): Conv2d(32, 16, kernel_size=(1, 1), stride=(1, 1), bias=False)\n        (conv_fution): Conv2d(96, 32, kernel_size=(1, 1), stride=(1, 1), bias=False)\n        (relu): ReLU(inplace=True)\n      )\n      (23): dfus_block(\n        (conv1): Conv2d(864, 128, kernel_size=(1, 1), stride=(1, 1), bias=False)\n        (conv_up1): Conv2d(128, 32, kernel_size=(3, 3), stride=(1, 1), padding=(1, 1), bias=False)\n        (conv_up2): Conv2d(32, 16, kernel_size=(1, 1), stride=(1, 1), bias=False)\n        (conv_down1): Conv2d(128, 32, kernel_size=(3, 3), stride=(1, 1), padding=(1, 1), bias=False)\n        (conv_down2): Conv2d(32, 16, kernel_size=(1, 1), stride=(1, 1), bias=False)\n        (conv_fution): Conv2d(96, 32, kernel_size=(1, 1), stride=(1, 1), bias=False)\n        (relu): ReLU(inplace=True)\n      )\n      (24): dfus_block(\n        (conv1): Conv2d(896, 128, kernel_size=(1, 1), stride=(1, 1), bias=False)\n        (conv_up1): Conv2d(128, 32, kernel_size=(3, 3), stride=(1, 1), padding=(1, 1), bias=False)\n        (conv_up2): Conv2d(32, 16, kernel_size=(1, 1), stride=(1, 1), bias=False)\n        (conv_down1): Conv2d(128, 32, kernel_size=(3, 3), stride=(1, 1), padding=(1, 1), bias=False)\n        (conv_down2): Conv2d(32, 16, kernel_size=(1, 1), stride=(1, 1), bias=False)\n        (conv_fution): Conv2d(96, 32, kernel_size=(1, 1), stride=(1, 1), bias=False)\n        (relu): ReLU(inplace=True)\n      )\n      (25): dfus_block(\n        (conv1): Conv2d(928, 128, kernel_size=(1, 1), stride=(1, 1), bias=False)\n        (conv_up1): Conv2d(128, 32, kernel_size=(3, 3), stride=(1, 1), padding=(1, 1), bias=False)\n        (conv_up2): Conv2d(32, 16, kernel_size=(1, 1), stride=(1, 1), bias=False)\n        (conv_down1): Conv2d(128, 32, kernel_size=(3, 3), stride=(1, 1), padding=(1, 1), bias=False)\n        (conv_down2): Conv2d(32, 16, kernel_size=(1, 1), stride=(1, 1), bias=False)\n        (conv_fution): Conv2d(96, 32, kernel_size=(1, 1), stride=(1, 1), bias=False)\n        (relu): ReLU(inplace=True)\n      )\n      (26): dfus_block(\n        (conv1): Conv2d(960, 128, kernel_size=(1, 1), stride=(1, 1), bias=False)\n        (conv_up1): Conv2d(128, 32, kernel_size=(3, 3), stride=(1, 1), padding=(1, 1), bias=False)\n        (conv_up2): Conv2d(32, 16, kernel_size=(1, 1), stride=(1, 1), bias=False)\n        (conv_down1): Conv2d(128, 32, kernel_size=(3, 3), stride=(1, 1), padding=(1, 1), bias=False)\n        (conv_down2): Conv2d(32, 16, kernel_size=(1, 1), stride=(1, 1), bias=False)\n        (conv_fution): Conv2d(96, 32, kernel_size=(1, 1), stride=(1, 1), bias=False)\n        (relu): ReLU(inplace=True)\n      )\n      (27): dfus_block(\n        (conv1): Conv2d(992, 128, kernel_size=(1, 1), stride=(1, 1), bias=False)\n        (conv_up1): Conv2d(128, 32, kernel_size=(3, 3), stride=(1, 1), padding=(1, 1), bias=False)\n        (conv_up2): Conv2d(32, 16, kernel_size=(1, 1), stride=(1, 1), bias=False)\n        (conv_down1): Conv2d(128, 32, kernel_size=(3, 3), stride=(1, 1), padding=(1, 1), bias=False)\n        (conv_down2): Conv2d(32, 16, kernel_size=(1, 1), stride=(1, 1), bias=False)\n        (conv_fution): Conv2d(96, 32, kernel_size=(1, 1), stride=(1, 1), bias=False)\n        (relu): ReLU(inplace=True)\n      )\n      (28): dfus_block(\n        (conv1): Conv2d(1024, 128, kernel_size=(1, 1), stride=(1, 1), bias=False)\n        (conv_up1): Conv2d(128, 32, kernel_size=(3, 3), stride=(1, 1), padding=(1, 1), bias=False)\n        (conv_up2): Conv2d(32, 16, kernel_size=(1, 1), stride=(1, 1), bias=False)\n        (conv_down1): Conv2d(128, 32, kernel_size=(3, 3), stride=(1, 1), padding=(1, 1), bias=False)\n        (conv_down2): Conv2d(32, 16, kernel_size=(1, 1), stride=(1, 1), bias=False)\n        (conv_fution): Conv2d(96, 32, kernel_size=(1, 1), stride=(1, 1), bias=False)\n        (relu): ReLU(inplace=True)\n      )\n      (29): dfus_block(\n        (conv1): Conv2d(1056, 128, kernel_size=(1, 1), stride=(1, 1), bias=False)\n        (conv_up1): Conv2d(128, 32, kernel_size=(3, 3), stride=(1, 1), padding=(1, 1), bias=False)\n        (conv_up2): Conv2d(32, 16, kernel_size=(1, 1), stride=(1, 1), bias=False)\n        (conv_down1): Conv2d(128, 32, kernel_size=(3, 3), stride=(1, 1), padding=(1, 1), bias=False)\n        (conv_down2): Conv2d(32, 16, kernel_size=(1, 1), stride=(1, 1), bias=False)\n        (conv_fution): Conv2d(96, 32, kernel_size=(1, 1), stride=(1, 1), bias=False)\n        (relu): ReLU(inplace=True)\n      )\n    )\n    (relu): ReLU(inplace=True)\n  )\n  (conv_out): Conv2d(1088, 31, kernel_size=(1, 1), stride=(1, 1), bias=False)\n)\nfrom torch.nn import MSELoss\n\n# Create the Learner with MSE Loss\nlearn = Learner(dls, model, loss_func=MSELoss())\nfrom torch.nn import MSELoss\n# Train or fine-tune the model (optional)\nmodel = HSCNN_Plus(in_channels=3, out_channels=3, num_blocks=5)  # Reduce num_blocks significantly\nlearn = Learner(dls, model.to('cpu'), loss_func=
…
\"\"\n        x: [b,c,h,w]\n        return out:[b,c,h,w]\n        \"\"\"\n        b, c, h_inp, w_inp = x.shape\n        hb, wb = 8, 8\n        pad_h = (hb - h_inp % hb) % hb\n        pad_w = (wb - w_inp % wb) % wb\n        x = F.pad(x, [0, pad_w, 0, pad_h], mode='reflect')\n        x = self.conv_in(x)\n        h = self.body(x)\n        h = self.conv_out(h)\n        h += x\n        return h[:, :, :h_inp, :w_inp]\n\n\n# from architecture.mst_plus_plus import MST_Plus_Plus\nimport architecture\nfrom utils import my_summary\nmy_summary(MST_Plus_Plus(), 256, 256, 3, 1)\n\nMST_Plus_Plus(\n  (conv_in): Conv2d(3, 31, kernel_size=(3, 3), stride=(1, 1), padding=(1, 1), bias=False)\n  (body): Sequential(\n    (0): MST(\n      (embedding): Conv2d(31, 31, kernel_size=(3, 3), stride=(1, 1), padding=(1, 1), bias=False)\n      (encoder_layers): ModuleList(\n        (0): ModuleList(\n          (0): MSAB(\n            (blocks): ModuleList(\n              (0): ModuleList(\n                (0): MS_MSA(\n                  (to_q): Linear(in_features=31, out_features=31, bias=False)\n                  (to_k): Linear(in_features=31, out_features=31, bias=False)\n                  (to_v): Linear(in_features=31, out_features=31, bias=False)\n                  (proj): Linear(in_features=31, out_features=31, bias=True)\n                  (pos_emb): Sequential(\n                    (0): Conv2d(31, 31, kernel_size=(3, 3), stride=(1, 1), padding=(1, 1), groups=31, bias=False)\n                    (1): GELU()\n                    (2): Conv2d(31, 31, kernel_size=(3, 3), stride=(1, 1), padding=(1, 1), groups=31, bias=False)\n                  )\n                )\n                (1): PreNorm(\n                  (fn): FeedForward(\n                    (net): Sequential(\n                      (0): Conv2d(31, 124, kernel_size=(1, 1), stride=(1, 1), bias=False)\n                      (1): GELU()\n                      (2): Conv2d(124, 124, kernel_size=(3, 3), stride=(1, 1), padding=(1, 1), groups=124, bias=False)\n                      (3): GELU()\n                      (4): Conv2d(124, 31, kernel_size=(1, 1), stride=(1, 1), bias=False)\n                    )\n                  )\n                  (norm): LayerNorm((31,), eps=1e-05, elementwise_affine=True)\n                )\n              )\n            )\n          )\n          (1): Conv2d(31, 62, kernel_size=(4, 4), stride=(2, 2), padding=(1, 1), bias=False)\n        )\n        (1): ModuleList(\n          (0): MSAB(\n            (blocks): ModuleList(\n              (0): ModuleList(\n                (0): MS_MSA(\n                  (to_q): Linear(in_features=62, out_features=62, bias=False)\n                  (to_k): Linear(in_features=62, out_features=62, bias=False)\n                  (to_v): Linear(in_features=62, out_features=62, bias=False)\n                  (proj): Linear(in_features=62, out_features=62, bias=True)\n                  (pos_emb): Sequential(\n                    (0): Conv2d(62, 62, kernel_size=(3, 3), stride=(1, 1), padding=(1, 1), groups=62, bias=False)\n                    (1): GELU()\n                    (2): Conv2d(62, 62, kernel_size=(3, 3), stride=(1, 1), padding=(1, 1), groups=62, bias=False)\n                  )\n                )\n                (1): PreNorm(\n                  (fn): FeedForward(\n                    (net): Sequential(\n                      (0): Conv2d(62, 248, kernel_size=(1, 1), stride=(1, 1), bias=False)\n                      (1): GELU()\n                      (2): Conv2d(248, 248, kernel_size=(3, 3), stride=(1, 1), padding=(1, 1), groups=248, bias=False)\n                      (3): GELU()\n                      (4): Conv2d(248, 62, kernel_size=(1, 1), stride=(1, 1), bias=False)\n                    )\n                  )\n                  (norm): LayerNorm((62,), eps=1e-05, elementwise_affine=True)\n                )\n              )\n            )\n          )\n          (1): Conv2d(62, 124, kernel_size=(4, 4), stride=(2, 2), padding=(1, 1), bias=False)\n        )\n      )\n      (bottleneck): MSAB(\n        (blocks): ModuleList(\n          (0): ModuleList(\n            (0): MS_MSA(\n              (to_q): Linear(in_features=124, out_features=124, bias=False)\n              (to_k): Linear(in_features=124, out_features=124, bias=False)\n              (to_v): Linear(in_features=124, out_features=124, bias=False)\n              (proj): Linear(in_features=124, out_features=124, bias=True)\n              (pos_emb): Sequential(\n                (0): Conv2d(124, 124, kernel_size=(3, 3), stride=(1, 1), padding=(1, 1), groups=124, bias=False)\n                (1): GELU()\n                (2): Conv2d(124, 124, kernel_size=(3, 3), stride=(1, 1), padding=(1, 1), groups=124, bias=False)\n              )\n            )\n            (1): PreNorm(\n              (fn): FeedForward(\n                (net): Sequential(\n                  (0): Conv2d(124, 496, kernel_size=(1, 1), stride=(1, 1), bias=False)\n                  (1): GELU()\n                  (2): Conv2d(496, 496, kernel_size=(3, 3), stride=(1, 1), padding=(1, 1), groups=496, bias=False)\n                  (3): GELU()\n                  (4): Conv2d(496, 124, kernel_size=(1, 1), stride=(1, 1), bias=False)\n                )\n              )\n              (norm): LayerNorm((124,), eps=1e-05, elementwise_affine=True)\n            )\n          )\n        )\n      )\n      (decoder_layers): ModuleList(\n        (0): ModuleList(\n          (0): ConvTranspose2d(124, 62, kernel_size=(2, 2), stride=(2, 2))\n          (1): Conv2d(124, 62, kernel_size=(1, 1), stride=(1, 1), bias=False)\n          (2): MSAB(\n            (blocks): ModuleList(\n              (0): ModuleList(\n                (0): MS_MSA(\n                  (to_q): Linear(in_features=62, out_features=62, bias=False)\n                  (to_k): Linear(in_features=62, out_features=62, bias=False)\n                  (to_v): Linear(in_features=62, out_features=62, bias=False)\n                  (proj): Linear(in_features=62, out_features=62, bias=True)\n                  (pos_emb): Sequential(\n                    (0): Conv2d(62, 62, kernel_size=(3, 3), stride=(1, 1), padding=(1, 1), groups=62, bias=False)\n                    (1): GELU()\n                    (2): Conv2d(62, 62, kernel_size=(3, 3), stride=(1, 1), padding=(1, 1), groups=62, bias=False)\n                  )\n                )\n                (1): PreNorm(\n                  (fn): FeedForward(\n                    (net): Sequential(\n                      (0): Conv2d(62, 248, kernel_size=(1, 1), stride=(1, 1), bias=False)\n                      (1): GELU()\n                      (2): Conv2d(248, 248, kernel_size=(3, 3), stride=(1, 1), padding=(1, 1), groups=248, bias=False)\n                      (3): GELU()\n                      (4): Conv2d(248, 62, kernel_size=(1, 1), stride=(1, 1), bias=False)\n                    )\n                  )\n                  (norm): LayerNorm((62,), eps=1e-05, elementwise_affine=True)\n                )\n              )\n            )\n          )\n        )\n        (1): ModuleList(\n          (0): ConvTranspose2d(62, 31, kernel_size=(2, 2), stride=(2, 2))\n          (1): Conv2d(62, 31, kernel_size=(1, 1), stride=(1, 1), bias=False)\n          (2): MSAB(\n            (blocks): ModuleList(\n              (0): ModuleList(\n                (0): MS_MSA(\n                  (to_q): Linear(in_features=31, out_features=31, bias=False)\n                  (to_k): Linear(in_features=31, out_features=31, bias=False)\n                  (to_v): Linear(in_features=31, out_features=31, bias=False)\n                  (proj): Linear(in_features=31, out_features=31, bias=True)\n                  (pos_emb): Sequential(\n                    (0): Conv2d(31, 31, kernel_size=(3, 3), stride=(1, 1), padding=(1, 1), groups=31, bias=False)\n                    (1): GELU()\n                    (2): Conv2d(31, 31, kernel_size=(3, 3), stride=(1, 1), padding=(1, 1), groups=31, bias=False)\n                  )\n                )\n                (1): PreNorm(\n                  (fn): FeedForward(\n                    (net): Sequential(\n                      (0): Conv2d(31, 124, kernel_size=(1, 1), stride=(1, 1), bias=False)\n                      (1): GELU()\n                      (2): Conv2d(124, 124, kernel_size=(3, 3), stride=(1, 1), padding=(1, 1), groups=124, bias=False)\n                      (3): GELU()\n                      (4): Conv2d(124, 31, kernel_size=(1, 1), stride=(1, 1), bias=False)\n                    )\n                  )\n                  (norm): LayerNorm((31,), eps=1e-05, elementwise_affine=True)\n                )\n              )\n            )\n          )\n        )\n      )\n      (mapping): Conv2d(31, 31, kernel_size=(3, 3), stride=(1, 1), padding=(1, 1), bias=False)\n      (lrelu): LeakyReLU(negative_slope=0.1, inplace=True)\n    )\n    (1): MST(\n      (embedding): Conv2d(31, 31, kernel_size=(3, 3), stride=(1, 1), padding=(1, 1), bias=False)\n      (encoder_layers): ModuleList(\n        (0): ModuleList(\n          (0): MSAB(\n            (blocks): ModuleList(\n              (0): ModuleList(\n                (0): MS_MSA(\n                  (to_q): Linear(in_features=31, out_features=31, bias=False)\n                  (to_k): Linear(in_features=31, out_features=31, bias=False)\n                  (to_v): Linear(in_features=31, out_features=31, bias=False)\n                  (proj): Linear(in_features=31, out_features=31, bias=True)\n                  (pos_emb): Sequential(\n                    (0): Conv2d(31, 31, kernel_size=(3, 3), stride=(1, 1), padding=(1, 1), groups=31, bias=False)\n                    (1): GELU()\n                    (2): Conv2d(31, 31, kernel_size=(3, 3), stride=(1, 1), padding=(1, 1), groups=31, bias=False)\n                  )\n                )\n                (1): PreNorm(\n                  (fn): FeedForward(\n                    (net): Sequential(\n                      (0): Conv2d(31, 124, kernel_size=(1, 1), stride=(1, 1), bias=False)\n                      (1): GELU()\n                      (2): Conv2d(124, 124, kernel_size=(3, 3), stride=(1, 1), padding=(1, 1), groups=124, bias=False)\n                      (3): GELU()\n                      (4): Conv2d(124, 31, kernel_size=(1, 1), stride=(1, 1), bias=False)\n                    )\n                  )\n                  (norm): LayerNorm((31,), eps=1e-05, elementwise_affine=True)\n                )\n              )\n            )\n          )\n          (1): Conv2d(31, 62, kernel_size=(4, 4), stride=(2, 2), padding=(1, 1), bias=False)\n        )\n        (1): ModuleList(\n          (0): MSAB(\n            (blocks): ModuleList(\n              (0): ModuleList(\n                (0): MS_MSA(\n                  (to_q): Linear(in_features=62, out_features=62, bias=False)\n                  (to_k): Linear(in_features=62, out_features=62, bias=False)\n                  (to_v): Linear(in_features=62, out_features=62, bias=False)\n                  (proj): Linear(in_features=62, out_features=62, bias=True)\n                  (pos_emb): Sequential(\n                    (0): Conv2d(62, 62, kernel_size=(3, 3), stride=(1, 1), padding=(1, 1), groups=62, bias=False)\n                    (1): GELU()\n                    (2): Conv2d(62, 62, kernel_size=(3, 3), stride=(1, 1), padding=(1, 1), groups=62, bias=False)\n                  )\n                )\n                (1): PreNorm(\n                  (fn): FeedForward(\n                    (net): Sequential(\n                      (0): Conv2d(62, 248, kernel_size=(1, 1), stride=(1, 1), bias=False)\n                      (1): GELU()\n                      (2): Conv2d(248, 248, kernel_size=(3, 3), stride=(1, 1), padding=(1, 1), groups=248, bias=False)\n                      (3): GELU()\n                      (4): Conv2d(248, 62, kernel_size=(1, 1), stride=(1, 1), bias=False)\n                    )\n                  )\n                  (norm): LayerNorm((62,), eps=1e-05, elementwise_affine=True)\n                )\n              )\n            )\n          )\n          (1): Conv2d(62, 124, kernel_size=(4, 4), stride=(2, 2), padding=(1, 1), bias=False)\n        )\n      )\n      (bottleneck): MSAB(\n        (blocks): ModuleList(\n          (0): ModuleList(\n            (0): MS_MSA(\n              (to_q): Linear(in_features=124, out_features=124, bias=False)\n              (to_k): Linear(in_features=124, out_features=124, bias=False)\n              (to_v): Linear(in_features=124, out_features=124, bias=False)\n              (proj): Linear(in_features=124, out_features=124, bias=True)\n              (pos_emb): Sequential(\n                (0): Conv2d(124, 124, kernel_size=(3, 3), stride=(1, 1), padding=(1, 1), groups=124, bias=False)\n                (1): GELU()\n                (2): Conv2d(124, 124, kernel_size=(3, 3), stride=(1, 1), padding=(1, 1), groups=124, bias=False)\n              )\n            )\n            (1): PreNorm(\n              (fn): FeedForward(\n                (net): Sequential(\n                  (0): Conv2d(124, 496, kernel_size=(1, 1), stride=(1, 1), bias=False)\n                  (1): GELU()\n                  (2): Conv2d(496, 496, kernel_size=(3, 3), stride=(1, 1), padding=(1, 1), groups=496, bias=False)\n                  (3): GELU()\n                  (4): Conv2d(496, 124, kernel_size=(1, 1), stride=(1, 1), bias=False)\n                )\n              )\n              (norm): LayerNorm((124,), eps=1e-05, elementwise_affine=True)\n            )\n          )\n        )\n      )\n      (decoder_layers): ModuleList(\n        (0): ModuleList(\n          (0): ConvTranspose2d(124, 62, kernel_size=(2, 2), stride=(2, 2))\n          (1): Conv2d(124, 62, kernel_size=(1, 1), stride=(1, 1), bias=False)\n          (2): MSAB(\n            (blocks): ModuleList(\n              (0): ModuleList(\n                (0): MS_MSA(\n                  (to_q): Linear(in_features=62, out_features=62, bias=False)\n                  (to_k): Linear(in_features=62, out_features=62, bias=False)\n                  (to_v): Linear(in_features=62, out_features=62, bias=False)\n                  (proj): Linear(in_features=62, out_features=62, bias=True)\n                  (pos_emb): Sequential(\n                    (0): Conv2d(62, 62, kernel_size=(3, 3), stride=(1, 1), padding=(1, 1), groups=62, bias=False)\n                    (1): GELU()\n                    (2): Conv2d(62, 62, kernel_size=(3, 3), stride=(1, 1), padding=(1, 1), groups=62, bias=False)\n                  )\n                )\n                (1): PreNorm(\n                  (fn): FeedForward(\n                    (net): Sequential(\n                      (0): Conv2d(62, 248, kernel_size=(1, 1), stride=(1, 1), bias=False)\n                      (1): GELU()\n                      (2): Conv2d(248, 248, kernel_size=(3, 3), stride=(1, 1), padding=(1, 1), groups=248, bias=False)\n                      (3): GELU()\n                      (4): Conv2d(248, 62, kernel_size=(1, 1), stride=(1, 1), bias=False)\n                    )\n                  )\n                  (norm): LayerNorm((62,), eps=1e-05, elementwise_affine=True)\n                )\n              )\n            )\n          )\n        )\n        (1): ModuleList(\n          (0): ConvTranspose2d(62, 31, kernel_size=(2, 2), stride=(2, 2))\n          (1): Conv2d(62, 31, kernel_size=(1, 1), stride=(1, 1), bias=False)\n          (2): MSAB(\n            (blocks): ModuleList(\n              (0): ModuleList(\n                (0): MS_MSA(\n                  (to_q): Linear(in_features=31, out_features=31, bias=False)\n                  (to_k): Linear(in_features=31, out_features=31, bias=False)\n                  (to_v): Linear(in_features=31, out_features=31, bias=False)\n                  (proj): Linear(in_features=31, out_features=31, bias=True)\n                  (pos_emb): Sequential(\n                    (0): Conv2d(31, 31, kernel_size=(3, 3), stride=(1, 1), padding=(1, 1), groups=31, bias=False)\n                    (1): GELU()\n                    (2): Conv2d(31, 31, kernel_size=(3, 3), stride=(1, 1), padding=(1, 1), groups=31, bias=False)\n                  )\n                )\n                (1): PreNorm(\n                  (fn): FeedForward(\n                    (net): Sequential(\n                      (0): Conv2d(31, 124, kernel_size=(1, 1), stride=(1, 1), bias=False)\n                      (1): GELU()\n                      (2): Conv2d(124, 124, kernel_size=(3, 3), stride=(1, 1), padding=(1, 1), groups=124, bias=False)\n                      (3): GELU()\n                      (4): Conv2d(124, 31, kernel_size=(1, 1), stride=(1, 1), bias=False)\n                    )\n                  )\n                  (norm): LayerNorm((31,), eps=1e-05, elementwise_affine=True)\n                )\n              )\n            )\n          )\n        )\n      )\n      (mapping): Conv2d(31, 31, kernel_size=(3, 3), stride=(1, 1), padding=(1, 1), bias=False)\n      (lrelu): LeakyReLU(negative_slope=0.1, inplace=True)\n    )\n    (2): MST(\n      (embedding): Conv2d(31, 31, kernel_size=(3, 3), stride=(1, 1), padding=(1, 1), bias=False)\n      (encoder_layers): ModuleList(\n        (0): ModuleList(\n          (0): MSAB(\n            (blocks): ModuleList(\n              (0): ModuleList(\n                (0): MS_MSA(\n                  (to_q): Linear(in_features=31, out_features=31, bias=False)\n                  (to_k): Linear(in_features=31, out_features=31, bias=False)\n                  (to_v): Linear(in_features=31, out_features=31, bias=False)\n                  (proj): Linear(in_features=31, out_features=31, bias=True)\n                  (pos_emb): Sequential(\n                    (0): Conv2d(31, 31, kernel_size=(3, 3), stride=(1, 1), padding=(1, 1), groups=31, bias=False)\n                    (1): GELU()\n                    (2): Conv2d(31, 31, kernel_size=(3, 3), stride=(1, 1), padding=(1, 1), groups=31, bias=False)\n                  )\n                )\n                (1): PreNorm(\n                  (fn): FeedForward(\n                    (net): Sequential(\n                      (0): Conv2d(31, 124, kernel_size=(1, 1), stride=(1, 1), bias=False)\n                      (1): GELU()\n                      (2): Conv2d(124, 124, kernel_size=(3, 3), stride=(1, 1), padding=(1, 1), groups=124, bias=False)\n                      (3): GELU()\n                      (4): Conv2d(124, 31, kernel_size=(1, 1), stride=(1, 1), bias=False)\n                    )\n                  )\n                  (norm): LayerNorm((31,), eps=1e-05, elementwise_affine=True)\n                )\n              )\n            )\n          )\n          (1): Conv2d(31, 62, kernel_size=(4, 4), stride=(2, 2), padding=(1, 1), bias=False)\n        )\n        (1): ModuleList(\n          (0): MSAB(\n            (blocks): ModuleList(\n              (0): ModuleList(\n                (0): MS_MSA(\n                  (to_q): Linear(in_features=62, out_features=62, bias=False)\n                  (to_k): Linear(in_features=62, out_features=62, bias=False)\n                  (to_v): Linear(in_features=62, out_features=62, bias=False)\n                  (proj): Linear(in_features=62, out_features=62, bias=True)\n                  (pos_emb): Sequential(\n                    (0): Conv2d(62, 62, kernel_size=(3, 3), stride=(1, 1), padding=(1, 1), groups=62, bias=False)\n                    (1): GELU()\n                    (2): Conv2d(62, 62, kernel_size=(3, 3), stride=(1, 1), padding=(1, 1), groups=62, bias=False)\n                  )\n                )\n                (1): PreNorm(\n                  (fn): FeedForward(\n                    (net): Sequential(\n                      (0): Conv2d(62, 248, kernel_size=(1, 1), stride=(1, 1), bias=False)\n                      (1): GELU()\n                      (2): Conv2d(248, 248, kernel_size=(3, 3), stride=(1, 1), padding=(1, 1), groups=248, bias=False)\n                      (3): GELU()\n                      (4): Conv2d(248, 62, kernel_size=(1, 1), stride=(1, 1), bias=False)\n                    )\n                  )\n                  (norm): LayerNorm((62,), eps=1e-05, elementwise_affine=True)\n                )\n              )\n            )\n          )\n          (1): Conv2d(62, 124, kernel_size=(4, 4), stride=(2, 2), padding=(1, 1), bias=False)\n        )\n      )\n      (bottleneck): MSAB(\n        (blocks): ModuleList(\n          (0): ModuleList(\n            (0): MS_MSA(\n              (to_q): Linear(in_features=124, out_features=124, bias=False)\n              (to_k): Linear(in_features=124, out_features=124, bias=False)\n              (to_v): Linear(in_features=124, out_features=124, bias=False)\n              (proj): Linear(in_features=124, out_features=124, bias=True)\n              (pos_emb): Sequential(\n                (0): Conv2d(124, 124, kernel_size=(3, 3), stride=(1, 1), padding=(1, 1), groups=124, bias=False)\n                (1): GELU()\n                (2): Conv2d(124, 124, kernel_size=(3, 3), stride=(1, 1), padding=(1, 1), groups=124, bias=False)\n              )\n            )\n            (1): PreNorm(\n              (fn): FeedForward(\n                (net): Sequential(\n                  (0): Conv2d(124, 496, kernel_size=(1, 1), stride=(1, 1), bias=False)\n                  (1): GELU()\n                  (2): Conv2d(496, 496, kernel_size=(3, 3), stride=(1, 1), padding=(1, 1), groups=496, bias=False)\n                  (3): GELU()\n                  (4): Conv2d(496, 124, kernel_size=(1, 1), stride=(1, 1), bias=False)\n                )\n              )\n              (norm): LayerNorm((124,), eps=1e-05, elementwise_affine=True)\n            )\n          )\n        )\n      )\n      (decoder_layers): ModuleList(\n        (0): ModuleList(\n          (0): ConvTranspose2d(124, 62, kernel_size=(2, 2), stride=(2, 2))\n          (1): Conv2d(124, 62, kernel_size=(1, 1), stride=(1, 1), bias=False)\n          (2): MSAB(\n            (blocks): ModuleList(\n              (0): ModuleList(\n                (0): MS_MSA(\n                  (to_q): Linear(in_features=62, out_features=62, bias=False)\n                  (to_k): Linear(in_features=62, out_features=62, bias=False)\n                  (to_v): Linear(in_features=62, out_features=62, bias=False)\n                  (proj): Linear(in_features=62, out_features=62, bias=True)\n                  (pos_emb): Sequential(\n                    (0): Conv2d(62, 62, kernel_size=(3, 3), stride=(1, 1), padding=(1, 1), groups=62, bias=False)\n                    (1): GELU()\n                    (2): Conv2d(62, 62, kernel_size=(3, 3), stride=(1, 1), padding=(1, 1), groups=62, bias=False)\n                  )\n                )\n                (1): PreNorm(\n                  (fn): FeedForward(\n                    (net): Sequential(\n                      (0): Conv2d(62, 248, kernel_size=(1, 1), stride=(1, 1), bias=False)\n                      (1): GELU()\n                      (2): Conv2d(248, 248, kernel_size=(3, 3), stride=(1, 1), padding=(1, 1), groups=248, bias=False)\n                      (3): GELU()\n                      (4): Conv2d(248, 62, kernel_size=(1, 1), stride=(1, 1), bias=False)\n                    )\n                  )\n                  (norm): LayerNorm((62,), eps=1e-05, elementwise_affine=True)\n                )\n              )\n            )\n          )\n        )\n        (1): ModuleList(\n          (0): ConvTranspose2d(62, 31, kernel_size=(2, 2), stride=(2, 2))\n          (1): Conv2d(62, 31, kernel_size=(1, 1), stride=(1, 1), bias=False)\n          (2): MSAB(\n            (blocks): ModuleList(\n              (0): ModuleList(\n                (0): MS_MSA(\n                  (to_q): Linear(in_features=31, out_features=31, bias=False)\n                  (to_k): Linear(in_features=31, out_features=31, bias=False)\n                  (to_v): Linear(in_features=31, out_features=31, bias=False)\n                  (proj): Linear(in_features=31, out_features=31, bias=True)\n                  (pos_emb): Sequential(\n                    (0): Conv2d(31, 31, kernel_size=(3, 3), stride=(1, 1), padding=(1, 1), groups=31, bias=False)\n                    (1): GELU()\n                    (2): Conv2d(31, 31, kernel_size=(3, 3), stride=(1, 1), padding=(1, 1), groups=31, bias=False)\n                  )\n                )\n                (1): PreNorm(\n                  (fn): FeedForward(\n                    (net): Sequential(\n                      (0): Conv2d(31, 124, kernel_size=(1, 1), stride=(1, 1), bias=False)\n                      (1): GELU()\n                      (2): Conv2d(124, 124, kernel_size=(3, 3), stride=(1, 1), padding=(1, 1), groups=124, bias=False)\n                      (3): GELU()\n                      (4): Conv2d(124, 31, kernel_size=(1, 1), stride=(1, 1), bias=False)\n                    )\n                  )\n                  (norm): LayerNorm((31,), eps=1e-05, elementwise_affine=True)\n                )\n              )\n            )\n          )\n        )\n      )\n      (mapping): Conv2d(31, 31, kernel_size=(3, 3), stride=(1, 1), padding=(1, 1), bias=False)\n      (lrelu): LeakyReLU(negative_slope=0.1, inplace=True)\n    )\n  )\n  (conv_out): Conv2d(31, 31, kernel_size=(3, 3), stride=(1, 1), padding=(1, 1), bias=False)\n)\n\n\nUnsupported operator aten::rsub encountered 2 time(s)\nUnsupported operator aten::pad encountered 1 time(s)\nUnsupported operator aten::mul encountered 45 time(s)\nUnsupported operator aten::linalg_vector_norm encountered 30 time(s)\nUnsupported operator aten::clamp_min encountered 30 time(s)\nUnsupported operator aten:
…
Module):\n    def __init__(self, in_channels=3, out_channels=31, num_blocks=30):\n        super(HSCNN_Plus, self).__init__()\n\n        self.ddfn = ddfn(dim=in_channels, num_blocks=num_blocks)\n        self.conv_out = nn.Conv2d(128+32*num_blocks, out_channels, 1, 1, 0, bias=False)\n\n    def forward(self, x):\n        \"\"\"\n        x: [b,c,h,w]\n        return out:[b,c,h,w]\n        \"\"\"\n        fea = self.ddfn(x)\n        out =  self.conv_out(fea)\n        return out\n\n\nfrom utils import my_summary\nmy_summary(HSCNN_Plus(), 256, 256, 3, 1)\n\nHSCNN_Plus(\n  (ddfn): ddfn(\n    (conv_up1): Conv2d(3, 32, kernel_size=(3, 3), stride=(1, 1), padding=(1, 1), bias=False)\n    (conv_up2): Conv2d(32, 32, kernel_size=(1, 1), stride=(1, 1), bias=False)\n    (conv_down1): Conv2d(3, 32, kernel_size=(3, 3), stride=(1, 1), padding=(1, 1), bias=False)\n    (conv_down2): Conv2d(32, 32, kernel_size=(1, 1), stride=(1, 1), bias=False)\n    (dfus_blocks): Sequential(\n      (0): dfus_block(\n        (conv1): Conv2d(128, 128, kernel_size=(1, 1), stride=(1, 1), bias=False)\n        (conv_up1): Conv2d(128, 32, kernel_size=(3, 3), stride=(1, 1), padding=(1, 1), bias=False)\n        (conv_up2): Conv2d(32, 16, kernel_size=(1, 1), stride=(1, 1), bias=False)\n        (conv_down1): Conv2d(128, 32, kernel_size=(3, 3), stride=(1, 1), padding=(1, 1), bias=False)\n        (conv_down2): Conv2d(32, 16, kernel_size=(1, 1), stride=(1, 1), bias=False)\n        (conv_fution): Conv2d(96, 32, kernel_size=(1, 1), stride=(1, 1), bias=False)\n        (relu): ReLU(inplace=True)\n      )\n      (1): dfus_block(\n        (conv1): Conv2d(160, 128, kernel_size=(1, 1), stride=(1, 1), bias=False)\n        (conv_up1): Conv2d(128, 32, kernel_size=(3, 3), stride=(1, 1), padding=(1, 1), bias=False)\n        (conv_up2): Conv2d(32, 16, kernel_size=(1, 1), stride=(1, 1), bias=False)\n        (conv_down1): Conv2d(128, 32, kernel_size=(3, 3), stride=(1, 1), padding=(1, 1), bias=False)\n        (conv_down2): Conv2d(32, 16, kernel_size=(1, 1), stride=(1, 1), bias=False)\n        (conv_fution): Conv2d(96, 32, kernel_size=(1, 1), stride=(1, 1), bias=False)\n        (relu): ReLU(inplace=True)\n      )\n      (2): dfus_block(\n        (conv1): Conv2d(192, 128, kernel_size=(1, 1), stride=(1, 1), bias=False)\n        (conv_up1): Conv2d(128, 32, kernel_size=(3, 3), stride=(1, 1), padding=(1, 1), bias=False)\n        (conv_up2): Conv2d(32, 16, kernel_size=(1, 1), stride=(1, 1), bias=False)\n        (conv_down1): Conv2d(128, 32, kernel_size=(3, 3), stride=(1, 1), padding=(1, 1), bias=False)\n        (conv_down2): Conv2d(32, 16, kernel_size=(1, 1), stride=(1, 1), bias=False)\n        (conv_fution): Conv2d(96, 32, kernel_size=(1, 1), stride=(1, 1), bias=False)\n        (relu): ReLU(inplace=True)\n      )\n      (3): dfus_block(\n        (conv1): Conv2d(224, 128, kernel_size=(1, 1), stride=(1, 1), bias=False)\n        (conv_up1): Conv2d(128, 32, kernel_size=(3, 3), stride=(1, 1), padding=(1, 1), bias=False)\n        (conv_up2): Conv2d(32, 16, kernel_size=(1, 1), stride=(1, 1), bias=False)\n        (conv_down1): Conv2d(128, 32, kernel_size=(3, 3), stride=(1, 1), padding=(1, 1), bias=False)\n        (conv_down2): Conv2d(32, 16, kernel_size=(1, 1), stride=(1, 1), bias=False)\n        (conv_fution): Conv2d(96, 32, kernel_size=(1, 1), stride=(1, 1), bias=False)\n        (relu): ReLU(inplace=True)\n      )\n      (4): dfus_block(\n        (conv1): Conv2d(256, 128, kernel_size=(1, 1), stride=(1, 1), bias=False)\n        (conv_up1): Conv2d(128, 32, kernel_size=(3, 3), stride=(1, 1), padding=(1, 1), bias=False)\n        (conv_up2): Conv2d(32, 16, kernel_size=(1, 1), stride=(1, 1), bias=False)\n        (conv_down1): Conv2d(128, 32, kernel_size=(3, 3), stride=(1, 1), padding=(1, 1), bias=False)\n        (conv_down2): Conv2d(32, 16, kernel_size=(1, 1), stride=(1, 1), bias=False)\n        (conv_fution): Conv2d(96, 32, kernel_size=(1, 1), stride=(1, 1), bias=False)\n        (relu): ReLU(inplace=True)\n      )\n      (5): dfus_block(\n        (conv1): Conv2d(288, 128, kernel_size=(1, 1), stride=(1, 1), bias=False)\n        (conv_up1): Conv2d(128, 32, kernel_size=(3, 3), stride=(1, 1), padding=(1, 1), bias=False)\n        (conv_up2): Conv2d(32, 16, kernel_size=(1, 1), stride=(1, 1), bias=False)\n        (conv_down1): Conv2d(128, 32, kernel_size=(3, 3), stride=(1, 1), padding=(1, 1), bias=False)\n        (conv_down2): Conv2d(32, 16, kernel_size=(1, 1), stride=(1, 1), bias=False)\n        (conv_fution): Conv2d(96, 32, kernel_size=(1, 1), stride=(1, 1), bias=False)\n        (relu): ReLU(inplace=True)\n      )\n      (6): dfus_block(\n        (conv1): Conv2d(320, 128, kernel_size=(1, 1), stride=(1, 1), bias=False)\n        (conv_up1): Conv2d(128, 32, kernel_size=(3, 3), stride=(1, 1), padding=(1, 1), bias=False)\n        (conv_up2): Conv2d(32, 16, kernel_size=(1, 1), stride=(1, 1), bias=False)\n        (conv_down1): Conv2d(128, 32, kernel_size=(3, 3), stride=(1, 1), padding=(1, 1), bias=False)\n        (conv_down2): Conv2d(32, 16, kernel_size=(1, 1), stride=(1, 1), bias=False)\n        (conv_fution): Conv2d(96, 32, kernel_size=(1, 1), stride=(1, 1), bias=False)\n        (relu): ReLU(inplace=True)\n      )\n      (7): dfus_block(\n        (conv1): Conv2d(352, 128, kernel_size=(1, 1), stride=(1, 1), bias=False)\n        (conv_up1): Conv2d(128, 32, kernel_size=(3, 3), stride=(1, 1), padding=(1, 1), bias=False)\n        (conv_up2): Conv2d(32, 16, kernel_size=(1, 1), stride=(1, 1), bias=False)\n        (conv_down1): Conv2d(128, 32, kernel_size=(3, 3), stride=(1, 1), padding=(1, 1), bias=False)\n        (conv_down2): Conv2d(32, 16, kernel_size=(1, 1), stride=(1, 1), bias=False)\n        (conv_fution): Conv2d(96, 32, kernel_size=(1, 1), stride=(1, 1), bias=False)\n        (relu): ReLU(inplace=True)\n      )\n      (8): dfus_block(\n        (conv1): Conv2d(384, 128, kernel_size=(1, 1), stride=(1, 1), bias=False)\n        (conv_up1): Conv2d(128, 32, kernel_size=(3, 3), stride=(1, 1), padding=(1, 1), bias=False)\n        (conv_up2): Conv2d(32, 16, kernel_size=(1, 1), stride=(1, 1), bias=False)\n        (conv_down1): Conv2d(128, 32, kernel_size=(3, 3), stride=(1, 1), padding=(1, 1), bias=False)\n        (conv_down2): Conv2d(32, 16, kernel_size=(1, 1), stride=(1, 1), bias=False)\n        (conv_fution): Conv2d(96, 32, kernel_size=(1, 1), stride=(1, 1), bias=False)\n        (relu): ReLU(inplace=True)\n      )\n      (9): dfus_block(\n        (conv1): Conv2d(416, 128, kernel_size=(1, 1), stride=(1, 1), bias=False)\n        (conv_up1): Conv2d(128, 32, kernel_size=(3, 3), stride=(1, 1), padding=(1, 1), bias=False)\n        (conv_up2): Conv2d(32, 16, kernel_size=(1, 1), stride=(1, 1), bias=False)\n        (conv_down1): Conv2d(128, 32, kernel_size=(3, 3), stride=(1, 1), padding=(1, 1), bias=False)\n        (conv_down2): Conv2d(32, 16, kernel_size=(1, 1), stride=(1, 1), bias=False)\n        (conv_fution): Conv2d(96, 32, kernel_size=(1, 1), stride=(1, 1), bias=False)\n        (relu): ReLU(inplace=True)\n      )\n      (10): dfus_block(\n        (conv1): Conv2d(448, 128, kernel_size=(1, 1), stride=(1, 1), bias=False)\n        (conv_up1): Conv2d(128, 32, kernel_size=(3, 3), stride=(1, 1), padding=(1, 1), bias=False)\n        (conv_up2): Conv2d(32, 16, kernel_size=(1, 1), stride=(1, 1), bias=False)\n        (conv_down1): Conv2d(128, 32, kernel_size=(3, 3), stride=(1, 1), padding=(1, 1), bias=False)\n        (conv_down2): Conv2d(32, 16, kernel_size=(1, 1), stride=(1, 1), bias=False)\n        (conv_fution): Conv2d(96, 32, kernel_size=(1, 1), stride=(1, 1), bias=False)\n        (relu): ReLU(inplace=True)\n      )\n      (11): dfus_block(\n        (conv1): Conv2d(480, 128, kernel_size=(1, 1), stride=(1, 1), bias=False)\n        (conv_up1): Conv2d(128, 32, kernel_size=(3, 3), stride=(1, 1), padding=(1, 1), bias=False)\n        (conv_up2): Conv2d(32, 16, kernel_size=(1, 1), stride=(1, 1), bias=False)\n        (conv_down1): Conv2d(128, 32, kernel_size=(3, 3), stride=(1, 1), padding=(1, 1), bias=False)\n        (conv_down2): Conv2d(32, 16, kernel_size=(1, 1), stride=(1, 1), bias=False)\n        (conv_fution): Conv2d(96, 32, kernel_size=(1, 1), stride=(1, 1), bias=False)\n        (relu): ReLU(inplace=True)\n      )\n      (12): dfus_block(\n        (conv1): Conv2d(512, 128, kernel_size=(1, 1), stride=(1, 1), bias=False)\n        (conv_up1): Conv2d(128, 32, kernel_size=(3, 3), stride=(1, 1), padding=(1, 1), bias=False)\n        (conv_up2): Conv2d(32, 16, kernel_size=(1, 1), stride=(1, 1), bias=False)\n        (conv_down1): Conv2d(128, 32, kernel_size=(3, 3), stride=(1, 1), padding=(1, 1), bias=False)\n        (conv_down2): Conv2d(32, 16, kernel_size=(1, 1), stride=(1, 1), bias=False)\n        (conv_fution): Conv2d(96, 32, kernel_size=(1, 1), stride=(1, 1), bias=False)\n        (relu): ReLU(inplace=True)\n      )\n      (13): dfus_block(\n        (conv1): Conv2d(544, 128, kernel_size=(1, 1), stride=(1, 1), bias=False)\n        (conv_up1): Conv2d(128, 32, kernel_size=(3, 3), stride=(1, 1), padding=(1, 1), bias=False)\n        (conv_up2): Conv2d(32, 16, kernel_size=(1, 1), stride=(1, 1), bias=False)\n        (conv_down1): Conv2d(128, 32, kernel_size=(3, 3), stride=(1, 1), padding=(1, 1), bias=False)\n        (conv_down2): Conv2d(32, 16, kernel_size=(1, 1), stride=(1, 1), bias=False)\n        (conv_fution): Conv2d(96, 32, kernel_size=(1, 1), stride=(1, 1), bias=False)\n        (relu): ReLU(inplace=True)\n      )\n      (14): dfus_block(\n        (conv1): Conv2d(576, 128, kernel_size=(1, 1), stride=(1, 1), bias=False)\n        (conv_up1): Conv2d(128, 32, kernel_size=(3, 3), stride=(1, 1), padding=(1, 1), bias=False)\n        (conv_up2): Conv2d(32, 16, kernel_size=(1, 1), stride=(1, 1), bias=False)\n        (conv_down1): Conv2d(128, 32, kernel_size=(3, 3), stride=(1, 1), padding=(1, 1), bias=False)\n        (conv_down2): Conv2d(32, 16, kernel_size=(1, 1), stride=(1, 1), bias=False)\n        (conv_fution): Conv2d(96, 32, kernel_size=(1, 1), stride=(1, 1), bias=False)\n        (relu): ReLU(inplace=True)\n      )\n      (15): dfus_block(\n        (conv1): Conv2d(608, 128, kernel_size=(1, 1), stride=(1, 1), bias=False)\n        (conv_up1): Conv2d(128, 32, kernel_size=(3, 3), stride=(1, 1), padding=(1, 1), bias=False)\n        (conv_up2): Conv2d(32, 16, kernel_size=(1, 1), stride=(1, 1), bias=False)\n        (conv_down1): Conv2d(128, 32, kernel_size=(3, 3), stride=(1, 1), padding=(1, 1), bias=False)\n        (conv_down2): Conv2d(32, 16, kernel_size=(1, 1), stride=(1, 1), bias=False)\n        (conv_fution): Conv2d(96, 32, kernel_size=(1, 1), stride=(1, 1), bias=False)\n        (relu): ReLU(inplace=True)\n      )\n      (16): dfus_block(\n        (conv1): Conv2d(640, 128, kernel_size=(1, 1), stride=(1, 1), bias=False)\n        (conv_up1): Conv2d(128, 32, kernel_size=(3, 3), stride=(1, 1), padding=(1, 1), bias=False)\n        (conv_up2): Conv2d(32, 16, kernel_size=(1, 1), stride=(1, 1), bias=False)\n        (conv_down1): Conv2d(128, 32, kernel_size=(3, 3), stride=(1, 1), padding=(1, 1), bias=False)\n        (conv_down2): Conv2d(32, 16, kernel_size=(1, 1), stride=(1, 1), bias=False)\n        (conv_fution): Conv2d(96, 32, kernel_size=(1, 1), stride=(1, 1), bias=False)\n        (relu): ReLU(inplace=True)\n      )\n      (17): dfus_block(\n        (conv1): Conv2d(672, 128, kernel_size=(1, 1), stride=(1, 1), bias=False)\n        (conv_up1): Conv2d(128, 32, kernel_size=(3, 3), stride=(1, 1), padding=(1, 1), bias=False)\n        (conv_up2): Conv2d(32, 16, kernel_size=(1, 1), stride=(1, 1), bias=False)\n        (conv_down1): Conv2d(128, 32, kernel_size=(3, 3), stride=(1, 1), padding=(1, 1), bias=False)\n        (conv_down2): Conv2d(32, 16, kernel_size=(1, 1), stride=(1, 1), bias=False)\n        (conv_fution): Conv2d(96, 32, kernel_size=(1, 1), stride=(1, 1), bias=False)\n        (relu): ReLU(inplace=True)\n      )\n      (18): dfus_block(\n        (conv1): Conv2d(704, 128, kernel_size=(1, 1), stride=(1, 1), bias=False)\n        (conv_up1): Conv2d(128, 32, kernel_size=(3, 3), stride=(1, 1), padding=(1, 1), bias=False)\n        (conv_up2): Conv2d(32, 16, kernel_size=(1, 1), stride=(1, 1), bias=False)\n        (conv_down1): Conv2d(128, 32, kernel_size=(3, 3), stride=(1, 1), padding=(1, 1), bias=False)\n        (conv_down2): Conv2d(32, 16, kernel_size=(1, 1), stride=(1, 1), bias=False)\n        (conv_fution): Conv2d(96, 32, kernel_size=(1, 1), stride=(1, 1), bias=False)\n        (relu): ReLU(inplace=True)\n      )\n      (19): dfus_block(\n        (conv1): Conv2d(736, 128, kernel_size=(1, 1), stride=(1, 1), bias=False)\n        (conv_up1): Conv2d(128, 32, kernel_size=(3, 3), stride=(1, 1), padding=(1, 1), bias=False)\n        (conv_up2): Conv2d(32, 16, kernel_size=(1, 1), stride=(1, 1), bias=False)\n        (conv_down1): Conv2d(128, 32, kernel_size=(3, 3), stride=(1, 1), padding=(1, 1), bias=False)\n        (conv_down2): Conv2d(32, 16, kernel_size=(1, 1), stride=(1, 1), bias=False)\n        (conv_fution): Conv2d(96, 32, kernel_size=(1, 1), stride=(1, 1), bias=False)\n        (relu): ReLU(inplace=True)\n      )\n      (20): dfus_block(\n        (conv1): Conv2d(768, 128, kernel_size=(1, 1), stride=(1, 1), bias=False)\n        (conv_up1): Conv2d(128, 32, kernel_size=(3, 3), stride=(1, 1), padding=(1, 1), bias=False)\n        (conv_up2): Conv2d(32, 16, kernel_size=(1, 1), stride=(1, 1), bias=False)\n        (conv_down1): Conv2d(128, 32, kernel_size=(3, 3), stride=(1, 1), padding=(1, 1), bias=False)\n        (conv_down2): Conv2d(32, 16, kernel_size=(1, 1), stride=(1, 1), bias=False)\n        (conv_fution): Conv2d(96, 32, kernel_size=(1, 1), stride=(1, 1), bias=False)\n        (relu): ReLU(inplace=True)\n      )\n      (21): dfus_block(\n        (conv1): Conv2d(800, 128, kernel_size=(1, 1), stride=(1, 1), bias=False)\n        (conv_up1): Conv2d(128, 32, kernel_size=(3, 3), stride=(1, 1), padding=(1, 1), bias=False)\n        (conv_up2): Conv2d(32, 16, kernel_size=(1, 1), stride=(1, 1), bias=False)\n        (conv_down1): Conv2d(128, 32, kernel_size=(3, 3), stride=(1, 1), padding=(1, 1), bias=False)\n        (conv_down2): Conv2d(32, 16, kernel_size=(1, 1), stride=(1, 1), bias=False)\n        (conv_fution): Conv2d(96, 32, kernel_size=(1, 1), stride=(1, 1), bias=False)\n        (relu): ReLU(inplace=True)\n      )\n      (22): dfus_block(\n        (conv1): Conv2d(832, 128, kernel_size=(1, 1), stride=(1, 1), bias=False)\n        (conv_up1): Conv2d(128, 32, kernel_size=(3, 3), stride=(1, 1), padding=(1, 1), bias=False)\n        (conv_up2): Conv2d(32, 16, kernel_size=(1, 1), stride=(1, 1), bias=False)\n        (conv_down1): Conv2d(128, 32, kernel_size=(3, 3), stride=(1, 1), padding=(1, 1), bias=False)\n        (conv_down2): Conv2d(32, 16, kernel_size=(1, 1), stride=(1, 1), bias=False)\n        (conv_fution): Conv2d(96, 32, kernel_size=(1, 1), stride=(1, 1), bias=False)\n        (relu): ReLU(inplace=True)\n      )\n      (23): dfus_block(\n        (conv1): Conv2d(864, 128, kernel_size=(1, 1), stride=(1, 1), bias=False)\n        (conv_up1): Conv2d(128, 32, kernel_size=(3, 3), stride=(1, 1), padding=(1, 1), bias=False)\n        (conv_up2): Conv2d(32, 16, kernel_size=(1, 1), stride=(1, 1), bias=False)\n        (conv_down1): Conv2d(128, 32, kernel_size=(3, 3), stride=(1, 1), padding=(1, 1), bias=False)\n        (conv_down2): Conv2d(32, 16, kernel_size=(1, 1), stride=(1, 1), bias=False)\n        (conv_fution): Conv2d(96, 32, kernel_size=(1, 1), stride=(1, 1), bias=False)\n        (relu): ReLU(inplace=True)\n      )\n      (24): dfus_block(\n        (conv1): Conv2d(896, 128, kernel_size=(1, 1), stride=(1, 1), bias=False)\n        (conv_up1): Conv2d(128, 32, kernel_size=(3, 3), stride=(1, 1), padding=(1, 1), bias=False)\n        (conv_up2): Conv2d(32, 16, kernel_size=(1, 1), stride=(1, 1), bias=False)\n        (conv_down1): Conv2d(128, 32, kernel_size=(3, 3), stride=(1, 1), padding=(1, 1), bias=False)\n        (conv_down2): Conv2d(32, 16, kernel_size=(1, 1), stride=(1, 1), bias=False)\n        (conv_fution): Conv2d(96, 32, kernel_size=(1, 1), stride=(1, 1), bias=False)\n        (relu): ReLU(inplace=True)\n      )\n      (25): dfus_block(\n        (conv1): Conv2d(928, 128, kernel_size=(1, 1), stride=(1, 1), bias=False)\n        (conv_up1): Conv2d(128, 32, kernel_size=(3, 3), stride=(1, 1), padding=(1, 1), bias=False)\n        (conv_up2): Conv2d(32, 16, kernel_size=(1, 1), stride=(1, 1), bias=False)\n        (conv_down1): Conv2d(128, 32, kernel_size=(3, 3), stride=(1, 1), padding=(1, 1), bias=False)\n        (conv_down2): Conv2d(32, 16, kernel_size=(1, 1), stride=(1, 1), bias=False)\n        (conv_fution): Conv2d(96, 32, kernel_size=(1, 1), stride=(1, 1), bias=False)\n        (relu): ReLU(inplace=True)\n      )\n      (26): dfus_block(\n        (conv1): Conv2d(960, 128, kernel_size=(1, 1), stride=(1, 1), bias=False)\n        (conv_up1): Conv2d(128, 32, kernel_size=(3, 3), stride=(1, 1), padding=(1, 1), bias=False)\n        (conv_up2): Conv2d(32, 16, kernel_size=(1, 1), stride=(1, 1), bias=False)\n        (conv_down1): Conv2d(128, 32, kernel_size=(3, 3), stride=(1, 1), padding=(1, 1), bias=False)\n        (conv_down2): Conv2d(32, 16, kernel_size=(1, 1), stride=(1, 1), bias=False)\n        (conv_fution): Conv2d(96, 32, kernel_size=(1, 1), stride=(1, 1), bias=False)\n        (relu): ReLU(inplace=True)\n      )\n      (27): dfus_block(\n        (conv1): Conv2d(992, 128, kernel_size=(1, 1), stride=(1, 1), bias=False)\n        (conv_up1): Conv2d(128, 32, kernel_size=(3, 3), stride=(1, 1), padding=(1, 1), bias=False)\n        (conv_up2): Conv2d(32, 16, kernel_size=(1, 1), stride=(1, 1), bias=False)\n        (conv_down1): Conv2d(128, 32, kernel_size=(3, 3), stride=(1, 1), padding=(1, 1), bias=False)\n        (conv_down2): Conv2d(32, 16, kernel_size=(1, 1), stride=(1, 1), bias=False)\n        (conv_fution): Conv2d(96, 32, kernel_size=(1, 1), stride=(1, 1), bias=False)\n        (relu): ReLU(inplace=True)\n      )\n      (28): dfus_block(\n        (conv1): Conv2d(1024, 128, kernel_size=(1, 1), stride=(1, 1), bias=False)\n        (conv_up1): Conv2d(128, 32, kernel_size=(3, 3), stride=(1, 1), padding=(1, 1), bias=False)\n        (conv_up2): Conv2d(32, 16, kernel_size=(1, 1), stride=(1, 1), bias=False)\n        (conv_down1): Conv2d(128, 32, kernel_size=(3, 3), stride=(1, 1), padding=(1, 1), bias=False)\n        (conv_down2): Conv2d(32, 16, kernel_size=(1, 1), stride=(1, 1), bias=False)\n        (conv_fution): Conv2d(96, 32, kernel_size=(1, 1), stride=(1, 1), bias=False)\n        (relu): ReLU(inplace=True)\n      )\n      (29): dfus_block(\n        (conv1): Conv2d(1056, 128, kernel_size=(1, 1), stride=(1, 1), bias=False)\n        (conv_up1): Conv2d(128, 32, kernel_size=(3, 3), stride=(1, 1), padding=(1, 1), bias=False)\n        (conv_up2): Conv2d(32, 16, kernel_size=(1, 1), stride=(1, 1), bias=False)\n        (conv_down1): Conv2d(128, 32, kernel_size=(3, 3), stride=(1, 1), padding=(1, 1), bias=False)\n        (conv_down2): Conv2d(32, 16, kernel_size=(1, 1), stride=(1, 1), bias=False)\n        (conv_fution): Conv2d(96, 32, kernel_size=(1, 1), stride=(1, 1), bias=False)\n        (relu): ReLU(inplace=True)\n      )\n    )\n    (relu): ReLU(inplace=True)\n  )\n  (conv_out): Conv2d(1088, 31, kernel_size=(1, 1), stride=(1, 1), bias=False)\n)\nGMac:283.5390625\nParams:4645504",
    "crumbs": [
      "MST++: Multi-stage Spectral-wise Transformer for Efficient Spectral Reconstruction (CVPRW 2022)"
    ]
  },
  {
    "objectID": "arad1k_mst++_inference.html#evaluation-on-the-test-set",
    "href": "arad1k_mst++_inference.html#evaluation-on-the-test-set",
    "title": "MST++: Multi-stage Spectral-wise Transformer for Efficient Spectral Reconstruction (CVPRW 2022)",
…
